best_meta_model.pt (torch, 9005 bytes, 4 tensors)

net.0.weight f4 [64, 16]
000000 2f 63 04 3f 04 18 70 be 4d 06 b6 3d 40 16 ea 3e
       0.5171384 -0.23446661 0.088879205 0.457201
000010 98 bf bc 3e aa 98 3d be 4e d6 90 bc 9e 5f 16 be
       0.36864924 -0.18515268 -0.017680313 -0.14684913
000020 f3 6f 0b 3f 20 4b 51 be 74 20 26 3d c0 06 c3 3e
       0.54467696 -0.20438814 0.040558293 0.38091087
000030 7d 92 b1 3e c4 96 63 be 6f 47 22 be b2 21 a9 3c
       0.34682074 -0.22225481 -0.15847562 0.02064595
000040 3d e7 c9 3e 1c 6d a2 3e dd 82 95 be 8a df 8a be
       0.39434233 0.3172387 -0.29201403 -0.27123672
000050 d2 43 07 be 2c b0 d1 be 54 59 90 3d 5c 6d 7d be
       -0.13209465 -0.4095472 0.07048288 -0.24748749
000060 94 18 27 3f 67 5e eb 3e ba 5d 7d 3c b2 1a 8e bd
       0.6527188 0.4597046 0.015464241 -0.069386855
000070 66 c1 52 3e 59 a7 5a bd 37 4b 97 3e b9 ac 36 bd
       0.20581588 -0.05338225 0.29549572 -0.044598315
000080 25 5f 15 be 2a e0 f5 bd 03 3f 5a be 3e c2 72 be
       -0.14587076 -0.120056465 -0.213131 -0.2370691
000090 52 b8 82 bd 34 f0 11 3e 17 0a e0 3b 7b 2a c3 3d
       -0.063828126 0.14251786 0.0068371403 0.09529587
0000a0 fe 25 04 3e e8 fd 8c be 42 ac a5 bc 79 53 52 bd
       0.12905118 -0.27537465 -0.02022374 -0.051349137
0000b0 6f e5 e5 bd 35 d5 3a be 0d 94 94 3d 90 d4 8c 3d
       -0.112254016 -0.18245395 0.07254801 0.068764806
0000c0 20 32 3e be 62 25 a8 3e 96 bc 2e be 73 3c b3 bd
       -0.18573809 0.3284102 -0.17064127 -0.08751764
0000d0 70 4a 08 3f e6 3c 4c be 6e b3 fc bd 40 8b bb 3e
       0.5323858 -0.19945106 -0.12338911 0.36629677
0000e0 26 cc 1e be 1a 84 0a 3f 62 33 40 be 0e 01 ae bd
       -0.15507564 0.5410782 -0.18769601 -0.08496295
0000f0 72 7a c7 3e a0 5a 91 be da 3f 3b be db db 0e 3e
       0.38960606 -0.28389454 -0.18286076 0.13951056
000100 1e 3b dd 3e a7 de ac be 83 02 6b bc db f3 b0 bd
       0.43209165 -0.3376362 -0.014343861 -0.08640262
000110 a1 54 ee 3e da 21 b9 bb e9 8a 17 3e 19 f6 ea be
       0.46548942 -0.0056497874 0.14799084 -0.45890883
000120 87 72 ea 3d 08 8b 1e be 1b 55 f7 bd 2d a2 b6 bd
       0.114476256 -0.15482724 -0.120767795 -0.08917651
000130 31 3d fa 3e 7f d1 0a bd 50 40 38 be 99 1f d6 be
       0.4887481 -0.033891197 -0.17993283 -0.41820982
000140 51 6c b3 be e8 92 fc 3e ec fa 6f be d1 e1 08 3f
       -0.35043576 0.4933083 -0.23435563 0.5346957
000150 e3 23 07 3d 38 20 36 3b 94 ee 7a 3d ec ee 71 be
       0.03299321 0.00277902 0.061262682 -0.23626298
000160 ca f0 b8 be 4f 4f 9b 3e 9a 6c 17 be f0 1d c4 3e
       -0.36121207 0.30333945 -0.14787522 0.3830409
000170 17 d5 aa 3e dc f9 74 3d d9 72 15 bd 0d bc 5c be
       0.333657 0.059808597 -0.03648648 -0.2155611
000180 f1 4d e8 3d 9d be 98 3e 20 ca e4 bd be ea 39 3e
       0.11342991 0.29832926 -0.11171365 0.18155953
000190 93 48 5a be 98 07 23 be 22 77 67 be d1 a7 2d be
       -0.21316747 -0.15920866 -0.2260404 -0.16958548
0001a0 58 ff e1 3d ab da 4b be 57 9b 76 3d 48 41 3e be
       0.11035031 -0.19907634 0.060206737 -0.1857959
0001b0 75 4b 4b bd 02 d6 cf bd 3b 7f 85 be b4 2f 75 be
       -0.04963251 -0.101482406 -0.26073632 -0.23943979
0001c0 f2 f3 9e 3e c6 77 c8 3c 8a e7 08 bf 7f e1 ab 3d
       0.3104549 0.024471175 -0.534783 0.08392619
0001d0 42 a3 50 be 6f 26 20 3c f9 02 6c 3e 53 61 cb be
       -0.20374778 0.009774788 0.23048009 -0.3972269
0001e0 51 9c f7 3e 92 db 5b 3c f1 31 e5 be ae 4e 3b 3d
       0.48361447 0.013419049 -0.44764665 0.04572933
0001f0 65 c4 73 3c 10 07 e6 3c e4 b8 93 3e a1 53 84 3d
       0.014878367 0.02807954 0.28851998 0.064612634
000200 fe e2 98 be 26 6c 15 be 6b 1a 8c 3e 53 54 9e 3d
       -0.2986068 -0.14592037 0.27363905 0.07730927
000210 5d 8e ba be 8a 40 24 bd 60 5e 0b 3f 16 bb 7a be
       -0.3643674 -0.04010061 0.5444088 -0.2448543
000220 25 46 4c 3d 87 2e 65 3e 37 f1 11 3e d1 04 e8 3e
       0.049871583 0.2238103 0.14252172 0.45316175
000230 59 59 33 be eb a0 a1 3d 52 6c d0 3e ca b5 8d be
       -0.17514552 0.07892021 0.40707642 -0.27677757
000240 de b3 40 be fc 70 77 bd c6 9c 9b 3d 64 3b f6 3d
       -0.18818614 -0.060410485 0.075982615 0.120230466
000250 65 ef 20 be 93 2a 58 bd 62 d0 a0 3c 6a a2 15 bd
       -0.15716322 -0.052774977 0.019630615 -0.036531843
000260 e9 ca 88 bd 0a 77 b2 3d 0b 06 f0 3c 7f 60 07 be
       -0.06679327 0.08714111 0.029299757 -0.13220404
000270 01 e8 ca 3c 21 92 02 bd 51 f7 e2 3d a8 0f 01 be
       0.024768831 -0.03187764 0.11082328 -0.12603629
000280 c0 f5 36 be ed 44 bb 3e 99 c6 13 be 88 fb c1 3e
       -0.17867184 0.36576024 -0.14431228 0.37887216
000290 fa 49 ac 3e f3 45 db be d0 95 40 be f9 31 cc 3c
       0.3365019 -0.42826805 -0.18807149 0.024926173
0002a0 c7 17 0a 3e a8 a8 5c 3d 49 2b de 3d 4a 78 0d 3f
       0.13485633 0.05387178 0.108481 0.5526167
0002b0 50 d7 8e 3e a8 ff 0c be 57 e3 56 bd ee d1 2e be
       0.27898645 -0.137694 -0.052462902 -0.1707227
0002c0 70 3e cf be 30 b4 e3 3e 18 cc 13 3e 9d b2 44 bd
       -0.40477324 0.4447341 0.14433324 -0.0480219
0002d0 03 3a e2 be a2 3c 43 3e d5 92 02 3f b6 c3 99 be
       -0.44184884 0.19066098 0.510053 -0.30032128
0002e0 97 93 b6 be 46 ea 09 3f 91 10 8c 3e c9 ed 99 3e
       -0.35659477 0.538731 0.2735639 0.30064228
0002f0 36 65 c2 be 80 88 73 3e fc e9 bd 3e 68 38 04 be
       -0.37967843 0.2378254 0.37092578 -0.12912142
000300 19 e2 82 3e c5 1c 3e be 0b 94 b9 3e fa 1b 83 bd
       0.25563124 -0.18565662 0.3624576 -0.064018205
000310 39 61 19 be 24 5c f0 3d 43 ce 85 bd 59 7d a9 bd
       -0.14978494 0.117363244 -0.06533482 -0.08275861
000320 f9 ed 1b 3f 5a 8a 23 3e b2 cd a6 3e a9 0c 84 3d
       0.6090999 0.15970746 0.32578808 0.06447727
000330 43 f9 0e 3e 39 6d 4b 3e e6 12 05 bd 93 0a ee 3c
       0.13962273 0.19865884 -0.032488726 0.029057777
000340 60 c2 e7 3e 31 1b 9a be a2 e4 5f 3e a9 6d b1 be
       0.45265484 -0.3009887 0.2186456 -0.34653977
000350 f3 0a a5 bc d7 51 87 3d ab 31 c9 be a7 67 8f 3e
       -0.020146823 0.066074066 -0.39295706 0.28008768
000360 32 39 03 3f 5a 0c d6 be 09 bb 8e 3d 83 ff 48 be
       0.5125915 -0.41806298 0.06969268 -0.1962872
000370 29 08 ce 3d 4c 6a 3f 3e d7 e7 8b be 9f 48 83 3e
       0.1006015 0.18692893 -0.27325317 0.25641343
000380 24 02 de 3e 1a d2 1a 3e 64 7a 48 be 14 d1 b3 be
       0.43361008 0.1511921 -0.19577938 -0.3512045
000390 41 12 8e 3e 8b 9a e7 3d 4a be 40 3e a6 81 8a be
       0.27748302 0.113087736 0.1882259 -0.2705204
0003a0 9e 7b 0c 3f ab 12 6f bd 5b 7c 01 bf ab 15 de be
       0.54876125 -0.058367413 -0.50580376 -0.43375906
0003b0 45 66 09 3f d2 8f dc 3e 62 4b 0d be 3f d3 f3 3c
       0.53671676 0.43078476 -0.13798288 0.029763816
0003c0 b9 21 1c 3f 5a 7a ba be 5b cc 99 3e 95 34 98 bd
       0.60988957 -0.36421472 0.30038723 -0.07431904
0003d0 0d c8 29 be 12 93 dc 3e 31 bd e6 bc 35 85 1f be
       -0.1658022 0.43080956 -0.028166385 -0.15578158
0003e0 b0 ab f0 3e d2 dc c1 bd f7 63 0b bc 38 4e 01 be
       0.47005987 -0.09465946 -0.00850772 -0.12627494
0003f0 3e 55 2d be 06 ff 99 3e 10 02 ae bd e9 66 94 3d
       -0.16927049 0.3007738 -0.08496487 0.07246191

net.0.bias f4 [64]
000000 2a 66 03 3d 0d cb 9e 3d 74 56 2e be d5 3e 82 3d
       0.032079853 0.077535726 -0.17025167 0.063596405
000010 aa fc 86 3e 43 68 09 3e d4 a4 40 be 0d 4b 9c 3e
       0.26364642 0.13418679 -0.18812877 0.3052601
000020 7c fe b5 3d b4 99 51 be 43 4a b4 3d 17 16 dd 3b
       0.0888643 -0.2046879 0.08803227 0.006747018
000030 ae 42 99 bd 9d aa 3e 3e a6 1b 56 3e cd dd b2 3d
       -0.07483421 0.18619771 0.20908985 0.087337114
000040 fb 40 5f 3e 86 97 6c 3e 1f c4 6b be 44 e4 fc bc
       0.21802132 0.23104677 -0.23024033 -0.030870564
000050 bb 68 de bc a2 68 15 3e 52 de 61 3e 84 1c 53 3e
       -0.027149549 0.14590696 0.22057465 0.20616347
000060 b9 5b 19 3e 0e e2 64 3e a9 b2 37 3e 24 e7 bf 3d
       0.14976396 0.22351858 0.17939247 0.093702585
000070 b2 27 a2 3d 1b d1 0b 3e 48 ff 75 3e 86 83 9b bc
       0.079177275 0.13653986 0.24023163 -0.018983614
000080 c5 03 b5 bb b6 7b 03 bd 6c f5 ff 3d 78 c5 0e 3e
       -0.005524131 -0.0321004 0.124979824 0.13942516
000090 6a 0a de bd de 75 9d 3e 28 26 0c 3e 54 28 47 3d
       -0.1084183 0.30753988 0.1368643 0.048622444
0000a0 49 6e 09 3e 93 33 21 3e 26 70 87 3e 09 14 0b be
       0.13420977 0.1574233 0.2645275 -0.13581862
0000b0 df 2b f6 3d 83 df de bb ab 31 05 3e 5c a3 0e bd
       0.120200865 -0.006801547 0.13007228 -0.03482376
0000c0 e0 ad 99 3d 8f 7a 8e bc 60 f5 02 3e b2 61 2a 3e
       0.07503867 -0.017392425 0.12788916 0.1663883
0000d0 23 11 8b 3d b6 65 91 3b 0c 0c c8 3d 94 56 8a 3c
       0.06790378 0.0044371737 0.09767923 0.016886987
0000e0 75 55 7f 3e 88 f0 88 3c 28 34 e5 3d 35 de 08 3e
       0.24934943 0.016716257 0.11191589 0.13366015
0000f0 14 0f 86 bb cf 59 f0 3d b3 56 97 3d 20 1d 2a be
       -0.004091153 0.1173588 0.073895834 -0.16612673

net.3.weight f4 [8, 64]
000000 1a 1d 92 3e 43 27 bc 3e f8 36 13 bd 67 49 a9 be
       0.28537828 0.36748704 -0.035941094 -0.33063814
000010 c8 35 78 3e 11 4e ef be 7a 7b 13 bd 26 d6 81 3e
       0.24239266 -0.46739247 -0.03600643 0.25358695
000020 bd 81 7d be bf 53 02 3d 65 94 fa bd 57 5f 0a bf
       -0.24756522 0.031818148 -0.12235335 -0.5405173
000030 81 61 81 3e f4 2f 9f 3e bc df 7e 3e 74 28 af 3e
       0.25269702 0.31091273 0.24890035 0.3421055
000040 a2 07 2b 3d 56 ea d3 3d 38 05 d9 bc e8 3c 92 be
       0.041755326 0.103474304 -0.026491746 -0.28562093
000050 20 23 25 bd d6 b7 58 be 18 a0 13 be 78 ad 2a 3d
       -0.0403167 -0.21163878 -0.1441654 0.04166934
000060 7e 30 80 be bc 46 11 3e 64 a2 21 be eb a0 31 bd
       -0.25036997 0.1418714 -0.15784603 -0.043366354
000070 c7 4a 0b bf 1b 31 ac bd bd 41 8c 3e 11 7c cb be
       -0.54410976 -0.084078036 0.27393904 -0.39743093
000080 9e 8e a5 be 90 48 41 be 05 be 0d 3e b0 9b 9e 3e
       -0.3233537 -0.18875337 0.13842018 0.30978155
000090 b1 71 1d bd 8d 0f 34 3e 3f f3 a7 3e c5 7a 43 bd
       -0.038438503 0.17584057 0.3280277 -0.047724504
0000a0 7f a4 41 3e 84 7d 85 be ca b6 d8 3d 97 90 d8 bd
       0.18910407 -0.26072323 0.10581739 -0.10574453
0000b0 9b 36 7a 3e ec f9 14 be 32 47 74 be e2 38 95 be
       0.24434893 -0.14548463 -0.23855284 -0.2914496
0000c0 c2 bb c1 3e b6 29 f8 be d3 23 c1 be a1 2d 83 3d
       0.3783856 -0.48469323 -0.37722644 0.064051874
0000d0 b1 74 95 3e 4c e9 d5 3d 22 9f 7f 3d f9 c8 d0 be
       0.2919059 0.104448885 0.06240762 -0.4077833
0000e0 63 15 0b be 0d 2c 8d 3e d6 e7 64 3d d3 5f 2d be
       -0.13582377 0.2757267 0.05588516 -0.16931085
0000f0 db 83 1f 3e 4b d1 86 3e d2 4d bb be f0 e9 a8 3d
       0.15577643 0.26331553 -0.3658281 0.08247745
000100 3b 6a 0b bf b0 14 c8 3e 5c 15 43 3c 13 d7 f3 3e
       -0.5445897 0.39078283 0.011906948 0.47625026
000110 9e 20 74 be ba e4 3e 3e 7a 35 94 3d c0 a2 ce bc
       -0.23840567 0.1864194 0.07236762 -0.02522409
000120 5f 02 6b 3c 39 52 18 bd 7e 64 a9 3d c9 fa b6 3e
       0.014343827 -0.03718779 0.082711205 0.3573821
000130 ec c4 9b be 22 69 05 bf 43 5d ac bc f3 4a 0f bf
       -0.30423677 -0.52113545 -0.021040564 -0.5597374
000140 da 91 b0 bd 5e ed ad bd 27 3c 00 bd ec 50 59 3e
       -0.08621569 -0.0849254 -0.031307366 0.21222275
000150 2d 83 0b 3e fe 4b 82 bd 3d 9b 27 be 45 47 de be
       0.13624258 -0.063621506 -0.16367812 -0.4341375
000160 32 1d db be 32 75 df bd 40 4c 19 bf fd ae 08 3e
       -0.42795712 -0.10911025 -0.59881973 0.13348003
000170 52 32 c5 be 2b 50 33 3e 26 be 05 be 98 a1 7f be
       -0.38514954 0.1751105 -0.13060817 -0.24963987
000180 5b 3c 92 be 36 29 83 be 81 fd 6a 3e 8e d7 5f be
       -0.28561673 -0.2561738 0.22948267 -0.21859571
000190 59 aa 10 bb 25 3e cd bb 99 8a d5 be 57 6d d7 be
       -0.0022074191 -0.0062635117 -0.41707304 -0.42075607
0001a0 2c 53 27 be 15 d3 2e 3e 77 2e 57 be 42 98 47 3d
       -0.16340321 0.17072709 -0.21013819 0.04872919
0001b0 99 fd f1 be bd 93 05 be 1a a4 43 be 39 aa 85 bd
       -0.47263792 -0.13044639 -0.19105569 -0.06526608
0001c0 23 ab 7f be 90 cf 52 3e df a8 9a 3e c8 53 09 bf
       -0.24967627 0.20586991 0.30206963 -0.53643465
0001d0 f3 3a 18 bf b9 0d ac be e1 85 11 3e 93 ef ff 3e
       -0.5946495 -0.3360422 0.14211227 0.49987468
0001e0 d0 13 1d bd 6f 9a b0 be 07 9a ef be b1 af fb bd
       -0.038348973 -0.34492823 -0.467972 -0.1228937
0001f0 12 e0 b5 3d d6 41 06 bf 58 a4 e1 be 40 d5 1a 3d
       0.08880629 -0.5244421 -0.44070697 0.037801027
000200 7d d3 e3 bb 11 e0 f5 be 59 1c 24 bc 9b fc c3 be
       -0.0069527016 -0.48022512 -0.010016524 -0.3827866
000210 84 63 f7 3b be 22 94 be a2 c7 2e be 11 0b d2 be
       0.007549705 -0.28932756 -0.17068341 -0.41024068
000220 78 4f 38 3e 02 fc f9 ba 8f aa 05 be fd b5 95 3d
       0.17999065 -0.0019072297 -0.13053344 0.07310102
000230 fa 27 8c 3e 25 89 e0 3d 88 0c b4 be 8b e8 97 3d
       0.2737425 0.10963658 -0.3516581 0.07417401
000240 5a 6c c1 be f2 2e e2 bd 69 24 9f bd 49 93 8c be
       -0.37777978 -0.1104411 -0.077706166 -0.2745612
000250 ea 2f d2 be 97 1e c6 be 6a 94 42 3e 53 06 03 bf
       -0.4105218 -0.38695213 0.19001928 -0.51181525
000260 6c 00 1d 3e 50 fa 53 be 38 b9 a0 3e 34 0e 1c be
       0.15332192 -0.20700955 0.3139131 -0.15239793
000270 53 b1 a2 3e f4 2d 8f be 25 b5 9e be 50 c7 ff be
       0.31775913 -0.27964747 -0.30997577 -0.4995675
000280 88 19 db be 2e 93 dd be 80 24 81 bd 9c cc c0 be
       -0.42792916 -0.43276352 -0.0630579 -0.37656105
000290 40 04 45 3d 51 d4 7c bd f6 3f 96 3e 62 f7 31 3e
       0.048099756 -0.06172592 0.29345673 0.17379525
0002a0 8f f9 f3 be f0 9d 21 3d 94 73 10 bb c8 85 19 bd
       -0.47651336 0.03945726 -0.0022041546 -0.0374811
0002b0 f3 83 38 3d ff a3 c1 3e 79 bf c6 be a2 ed a0 3e
       0.04504771 0.37820432 -0.38817957 0.314313
0002c0 e7 30 d9 be f9 73 5f 3e d3 c0 ab 3e 0e 9e bc be
       -0.42420122 0.21821584 0.3354555 -0.36839336
0002d0 f2 3e 73 3e 34 0b cd be d5 c8 89 be b3 f7 33 bf
       0.2375448 -0.4004761 -0.26911035 -0.70299834
0002e0 cc c2 ad bc ab e8 d8 be 62 fa 8d be de eb ab 3e
       -0.02121105 -0.42365012 -0.2773009 0.3357839
0002f0 4d bb db 3d ab 44 51 be b8 be 09 be d0 fc f4 bc
       0.10729084 -0.20436351 -0.1345166 -0.029905707
000300 04 d9 76 3e 96 fd f8 be a3 05 15 bd 72 7d 7a be
       0.24106222 -0.4863097 -0.03638233 -0.24461916
000310 d2 3e 46 3d 6e 45 7d 3e 29 a1 35 bd c6 42 82 3d
       0.048399754 0.24733517 -0.044343147 0.06360392
000320 5e 83 72 3e ee 55 54 bc 72 4b 8f 3e 0d 97 f8 3c
       0.23682925 -0.01295994 0.27987248 0.030345464
000330 ee 4b 81 be 80 b2 d4 be 7c 4c cc be f5 0f dc be
       -0.25253242 -0.41542435 -0.39902103 -0.42980924
000340 e5 3d ab be d9 cd 70 be 0b 9e 59 bd 82 6a 47 be
       -0.3344566 -0.23516025 -0.053129237 -0.19474223
000350 4c 14 b5 be 40 40 78 be fd 30 90 3e 56 89 a1 be
       -0.35367048 -0.2424326 0.28162375 -0.31550092
000360 65 02 65 3e da 76 c7 be ab 0b 5d be ad f0 b5 3e
       0.22364195 -0.38957864 -0.21586482 0.35535184
000370 99 ca 8c 3e d4 be c1 be fe 99 b0 be d8 a8 a2 3e
       0.2749832 -0.37840903 -0.34492487 0.31769443
000380 02 cc a1 3e 3b a1 6d be aa c6 7d bd 5d e8 6d 3e
       0.31600958 -0.23206036 -0.06195704 0.23233171
000390 ac d4 dc 3d c3 ec 10 be d8 69 e2 be f4 24 c4 bc
       0.107827514 -0.14152817 -0.44221377 -0.023943402
0003a0 f5 f8 9d be a8 94 17 be 7c e1 ed 3d 3f f9 a1 bd
       -0.30854002 -0.14802802 0.11615273 -0.07908868
0003b0 17 fb 46 3e 9f bc 02 bf ad 23 f7 3d 09 48 a9 be
       0.1943172 -0.5106906 0.120673515 -0.3306277
0003c0 f4 f9 c8 be 24 1a 85 be 93 6f 30 3e d8 a4 32 3e
       -0.392532 -0.25996506 0.17230062 0.17445695
0003d0 51 20 33 be ca d3 a0 3e 8d d3 d4 be 3e b9 2a be
       -0.17492796 0.31411582 -0.4156765 -0.16672227
0003e0 0c 6c 09 3e c4 0a c2 be a2 22 29 3e 36 d7 d5 be
       0.13420123 -0.3789884 0.16517118 -0.41765755
0003f0 3b 81 9e 3e 30 f4 fa be 52 fb 09 3e 52 58 d8 3d
       0.3095797 -0.49014425 0.13474777 0.10563721

net.3.bias f4 [8]
000000 09 0b 5d bc be ea bc bd 5b b5 be bd d1 e0 a2 3b
       -0.0134914005 -0.09224461 -0.093119346 0.004970648
000010 bb d2 16 bd f2 59 a0 bc 43 2a cf bd 6f 05 8b bd
       -0.036822062 -0.01957414 -0.10115483 -0.06788146
