best_meta_model.pt (torch, 9005 bytes, 4 tensors)

net.0.weight f4 [64, 16]
00000000: 3b22 9c3e b3cb b13e 7fc6 08bf 898d d73e
00000010: 72d3 0b3a 4334 08bf 0397 e5be 53ea d53e
00000020: 3cf8 c43e 9194 523e 8f6a f7be 16f6 c23e
00000030: ca50 38be f40c 8ebe db0c 76be 2d11 173d
00000040: 86ad 89be 55ea e9be b785 aebf 3616 06bf
00000050: 7533 4a3e ea1d f03c 5438 443f 1faa 7e3e
00000060: 8887 6b3d 8ab5 6b3d 043a 88bf 78f1 7fbe
00000070: 3c9a 9e3e 2106 813e d55d 4e3f 3f21 f83e
00000080: 8931 25bf 0195 97bf c566 db3e 2351 6f3d
00000090: 8331 783e c889 b73d 3d00 3abf 3e1c 1f3f
000000a0: d705 30be c9b6 8bbf bad0 9f3e 0d65 793e
000000b0: 06ed a73e b9b1 5e3d 7061 65bf a617 b03e
000000c0: 458f 4e3e 7d25 0ebf 466e 963e e5ba c23e
000000d0: 6926 c63e d11b ffbe 685b 373c 0bd5 a53e
000000e0: 290e 883d 7848 30bf 5a4e e13e 38e1 8e3c
000000f0: b89a 033f 66aa 3bbf c396 5ebe 59b4 733e
00000100: 4e17 f33e 4a21 ebbe 0227 a43e fbee d3be
00000110: a0cc 6cbd 1ded e6bd b7bb 233f 5a13 d4be
00000120: b861 b23e 7c86 3abe a94e 9d3e a224 50be
00000130: 0912 b23e ecee 473e ca1f c43e c9c2 83be
00000140: 1595 0cbf 2832 9ebe de4d f03e dfc2 b13e
00000150: 4d0c e23b ae4d 423e c88a 2cbe ac2f 723d
00000160: 3d39 64be f8fc b7be 6998 de3e 9d33 1f3e
00000170: aa93 e03d d562 ce3d 03dc b7be 01e3 1ebe
00000180: ec8b fe3e a421 633d d8f6 96bd 42c2 dfbd
00000190: 193b 9cbe b7bc 8d3e 3814 d9bf 723b 1dbf
000001a0: b682 ab3e e209 f1be 228f e2be 04ff ca3c
000001b0: 629f 62be 0ad2 983e 2bb7 72bf e12c 2a3e
000001c0: ffa0 903e fe32 843e 7369 b33e 4394 183d
000001d0: 20a8 c93e fd03 6abf 53ff 11bf d790 3bbf
000001e0: d90a 633e f9c8 b63e 6de9 b73e ae35 68bc
000001f0: ddd2 ae3e ec89 52be 9424 adbe ce53 29bf
00000200: e326 113d c850 30be afe1 02be 7cb4 8cbe
00000210: 093b 4abd 4da3 803d 701e 0bbe 4d2e 8fbe
00000220: e9c9 48bd 4a60 26bd c8bd b1bd 375a 73be
00000230: e6cd 453e 5b10 303e f336 88be 66ed 46be
00000240: a1bd 8ebe 4e2b 413f dc57 613e 002f 88bd
00000250: 97b6 b63e 795d 2f3e ce06 48bf b89c 46bf
00000260: 6e6f acbd c2c9 e53e 9ddd 8a3e 6268 413e
00000270: f611 e53e 888c 303e 6651 debe 98da 9bbe
00000280: 74b5 b7bd 1fde d73e 4c60 03bf e75c 33be
00000290: 33b9 90be a18c 853e 70ef dabe 3a15 c9bd
000002a0: 9755 3b3e 317f 193f 0bce 32bf 8491 c93d
000002b0: 6af7 6d3c bb6a 903e ab0e 343e 3aae 0e3e
000002c0: 5d2c 843e 19ee 4abf 9557 b7bd 833c 053e
000002d0: aec6 35be 2af7 f13e 9130 07bf 2741 203e
000002e0: c3e0 943e 4719 5abe 3b35 86be 8ee9 4cbd
000002f0: ec63 88be 0c07 573e f43d b2bc 12a1 313e
00000300: a760 3bbf f90a ee3e 522b 8c3c 75be 7dbe
00000310: 6c63 2d3e d9c9 983c 5959 8dbf d2e8 0a3f
00000320: 0bbb b4be 10d7 143f d875 133e 8f87 68be
00000330: cf16 b63d 2ed1 37be e7bf 02bf d961 b73e
00000340: 208c 0e3e 8908 a1bf b885 093e 9057 aebd
00000350: 4662 313e d687 9b3d 86bf 413f af08 13bf
00000360: a6b6 523e e6bd 60bf 544e 833d b850 18be
00000370: 4c89 6e3e 0eb1 99bd fcba 1a3f 11a7 3dbf
00000380: 2074 6b3e b063 373e 28b2 57bf e432 cf3e
00000390: 95c8 e33e bf8f ae3d 8520 4cbf 937f 47bf
000003a0: a937 893d e756 75be 49dd fabe 81c7 4f3e
000003b0: bdd5 7e3e 6601 373e 4d23 97be 592b c0be
000003c0: 0fa6 e53e c2d6 8abf 3b5d 043e 0cdc b23c
000003d0: 88dd 36be f155 c93d 58f4 f6bf 2e93 203e
000003e0: a4e9 613e 3b42 6abf b029 7b3e dd4c 8dbd
000003f0: 89ae aabe 3d4b 9b3d bf07 aabf 4704 6b3e
0.30494866 0.34725723 -0.5342788 0.4210017 0.0005333937 -0.53204745 -0.44841775 0.41780338
0.38470638 0.20564486 -0.48323485 0.38078374 -0.17999569 -0.27744257 -0.24028341 0.036881614
-0.268902 -0.45686594 -1.3634557 -0.5237764 0.19746192 0.02931114 0.7664845 0.24869584
0.0575023 0.057546176 -1.0642705 -0.24994457 0.30977046 0.25199988 0.80611926 0.48462865
-0.6452871 -1.1842347 0.42851844 0.058426987 0.24237637 0.089618266 -0.72656614 0.6215247
-0.17189728 -1.0915157 0.31213933 0.24354954 0.32798022 0.05436871 -0.896018 0.34393042
0.2017184 -0.5552595 0.29381007 0.38033214 0.3870118 -0.4982591 0.011191227 0.323891
0.06643326 -0.6886058 0.4400509 0.017441377 0.5140796 -0.7330688 -0.21737199 0.23799266
0.47478718 -0.45923835 0.3206101 -0.41393265 -0.057812333 -0.112756945 0.63958305 -0.41421014
0.34840178 -0.18215364 0.30724075 -0.20326474 0.34779385 0.19524735 0.38305503 -0.25734547
-0.5491498 -0.3089764 0.46934408 0.34718987 0.006898439 0.18974945 -0.16849816 0.059127495
-0.2228746 -0.35935187 0.43475655 0.15547033 0.10965665 0.100774445 -0.35910043 -0.15516283
0.49716127 0.055452004 -0.073713005 -0.109257236 -0.30513838 0.2768304 -1.6959295 -0.6141883
0.33498162 -0.47077852 -0.44249827 0.024779804 -0.22131112 0.29847747 -0.9481074 0.16618682
0.2824783 0.25820154 0.3504139 0.03725077 0.39386082 -0.91412336 -0.5703022 -0.73267883
0.22172107 0.35700205 0.35920277 -0.0141729545 0.3414525 -0.20560426 -0.3381697 -0.661435
0.035437476 -0.17218316 -0.12781404 -0.2748145 -0.049372707 0.06281147 -0.1358583 -0.27965012
-0.04902068 -0.040619172 -0.08678776 -0.23764883 0.19316825 0.17193739 -0.26604423 -0.19426498
-0.2787905 0.754567 0.22006172 -0.066495895 0.3568618 0.171255 -0.78135383 -0.77582884
-0.08419691 0.44880491 0.27122203 0.18887475 0.44740266 0.17241108 -0.43421477 -0.3044021
-0.08970156 0.42161652 -0.5131881 -0.17515908 -0.28266296 0.26083854 -0.427608 -0.09818502
0.18294369 0.59959704 -0.69845647 0.09842208 0.01452432 0.2820643 0.1758372 0.1393365
0.25815096 -0.7926956 -0.08952252 0.13011365 -0.17751572 0.47258884 -0.5280848 0.15649854
0.2907773 -0.21298705 -0.26212487 -0.050027423 -0.26638734 0.20998782 -0.021758057 0.173466
-0.73194355 0.46492746 0.0171105 -0.24779685 0.16932458 0.018650936 -1.1042892 0.54261506
-0.35298952 0.5814066 0.14400423 -0.22707961 0.08891069 -0.1795089 -0.5107407 0.3581684
0.13920641 -1.258073 0.13429916 -0.08512795 0.17322645 0.07594268 0.75682867 -0.57435125
0.20577487 -0.8778976 0.06411424 -0.14874542 0.23294562 -0.075044736 0.60441566 -0.7408305
0.22993517 0.17909122 -0.8425622 0.40468514 0.4448897 0.08523511 -0.7973712 -0.7792904
0.067000695 -0.23958932 -0.48996952 0.20290948 0.24886222 0.17871627 -0.2951912 -0.37533072
0.44853255 -1.0846789 0.1292619 0.021833442 -0.17857945 0.09830845 -1.9293318 0.15681145
0.22061783 -0.9150731 0.24527621 -0.06899426 -0.33336285 0.0758271 -1.3283614 0.2295085

net.0.bias f4 [64]
00000000: 5cd8 a83d 520f 293e 0592 523c 0abc a33d
00000010: 5e96 6ebd 8c27 743d 393a 2e3d 460e a83c
00000020: 9dae 5cbe e5d9 9dbd 72a3 ac3d e744 a13d
00000030: cc0e 6a3e 5247 1c3e cda0 a93d 7460 313e
00000040: 65a9 1c3c b761 2e3e 0e84 0dbe 141d 70bd
00000050: d52a 433e 4700 313e 2af8 52be 042f 4cbe
00000060: 530a cb3d ec8b da3c 8ce6 223e ba23 383e
00000070: d52f 513e 872c 823d 1526 853c 51d1 813d
00000080: c40a 5cbe 466a 80be 37be 153d dc0e 263e
00000090: fff4 1e3e a72e ef3d 4a39 aa3d 86fa 1c3e
000000a0: 5fb7 983d a748 693d 04ec a43c a370 e4ba
000000b0: 21ee 163e ccaf 4abd 5441 de3d 57f1 f2bd
000000c0: adab 8a3d 761e 1bbd 64db 3d3e 448d 523e
000000d0: 8211 b13d d127 283e be9d 533e 6feb 35bc
000000e0: 199e 9b3d 4f0e f9bd 42c2 6bba 0e47 423d
000000f0: 82f8 593e 68ee 6abc d6f8 1e3e 754e 7dbd
0.08244392 0.1650975 0.012852197 0.0799485 -0.05824887 0.059608027 0.042535994 0.020514619
-0.21550985 -0.07707576 0.08429612 0.0787447 0.22857207 0.15261582 0.082826234 0.1732195
0.009561871 0.17029463 -0.13819906 -0.05862148 0.19059308 0.17285262 -0.2060248 -0.1993981
0.099140786 0.026678048 0.15908259 0.17982379 0.20428403 0.06356149 0.01625351 0.06338752
-0.21488482 -0.2508108 0.036558356 0.16216606 0.15523146 0.1167882 0.08311708 0.15329942
0.0745685 0.056954052 0.020132072 -0.0017428588 0.14739276 -0.04948406 0.10852304 -0.11862438
0.06771026 -0.037870847 0.18540722 0.20561701 0.086459175 0.16421439 0.20665643 -0.011103495
0.07598514 -0.12160932 -0.0008993485 0.047431044 0.21286204 -0.014339067 0.15524611 -0.0618424

net.3.weight f4 [8, 64]
00000000: 143f 453e 7d6a 1dbe 238a 09bf 7440 babb
00000010: d4a1 7e3e beb0 3bbf 7b40 c43e 76e6 963e
00000020: 16f0 68bd 9b2b d1be 219d 643d ec5b 2e3e
00000030: e66a 04bf d90a 1d3e ab37 683e 1d70 9f3e
00000040: d820 f8bd 55e8 f13d 70fa 863a 8962 3abe
00000050: 7085 253e d5df 3a3e 10d5 46bc aa88 89bd
00000060: 4784 253e a3ee 243e 0340 bfbe 17ce 983d
00000070: 5caf 813e b71d 003e 2e57 4abf fb6c a2be
00000080: 37de 5d3d f7c4 d6bd f65f 953e e11e 063c
00000090: e45f 24bf e5ad 88be 88b2 16bf 0e84 3a3e
000000a0: 9ae6 ce3d 9c2d 9c3e 00a0 c6bd 482f 6ebf
000000b0: 11cd 07be 6fff 2abe 287e 12bd 54d4 2ebf
000000c0: 3700 c9be 9c5b 6b3e bd42 893e 0dfd 843d
000000d0: 173b c8be 6268 543e 4f47 26bf c13e 623e
000000e0: 9b6f 14bf 47d0 12bf 13bb 803e a4d9 bf3e
000000f0: 2212 cdbd 29d7 32be d880 cc3d 8388 b3bd
00000100: 635f 633e 437d f5bd ee54 7cbf 8147 f0be
00000110: 9a10 ebbe 29f6 a7be fd16 07be d678 8b3c
00000120: ced5 c23d 1b94 b33e 8ada 553e dfb2 08bf
00000130: 0cd8 de3e 7fb5 2dbf ea1b 163d 866c 70bf
00000140: 424d 003f 08a1 5fbd 0167 30bf 62a1 3cbe
00000150: 9aa2 0abf 0e16 e8be ba2c 68bd 006a d73a
00000160: 29eb 00be f9aa fabd 3b15 c73e 8642 ce3d
00000170: ad7e f8be 5847 d93e ceff a53e ff3b 833e
00000180: 60f4 68bd 4de4 1fbd 4bac 12bf 8828 65be
00000190: 4e87 c33b bc08 c83e baab 353e bf80 01bf
000001a0: 8e1a 6dbe ebac f13d cbe9 2cbf 3b5a 123e
000001b0: dd48 e73c d976 b6be 9a63 833e f563 9fbe
000001c0: 2b5c bbbe be21 053d fb7a 93be e135 06bd
000001d0: 4b49 c0be 1105 88bc 9b33 5a3d 4a6b d73e
000001e0: e0dc f5be 3cc2 29bf e613 debe 47e4 28bf
000001f0: 3197 cbbe fce5 ffbe d960 9dbd 8a6c 7a3d
00000200: 11b3 2bbf 97b8 4ebf 0a99 a03e c98c 413e
00000210: fff1 823e d987 553e e845 4fbe 04a6 9c3e
00000220: ad44 e93b 9da3 023e 0316 20bf 6fec 9ebe
00000230: 123b 063e f65f e53c ed54 dbbe 62cc 5e3e
00000240: ba47 57bf 134c 483e 86e2 82bf 5031 553e
00000250: c420 5a3e 753c 9c3e 5b2c 9abd 5c13 d2bd
00000260: 0efb c93c 7090 9dbe aee0 1cbf bcab 20bc
00000270: 7f44 1abf 2536 84bf a4d6 773e d1fb 68bf
00000280: 7574 06bb fd6d c9bd f38c 5cbd 378c 12bf
00000290: 60a3 55bb 0328 bc3d c52b 873d c576 5e3e
000002a0: c97a 1ebd beba 57bf 4c8e 63be 87c9 f33d
000002b0: 7779 bcbe 1bb8 873e 2e07 e5bd e751 19bf
000002c0: 3008 3abf b6e1 7abf 2794 1d3e ac36 d73d
000002d0: afad 403c 9336 cebe 4d85 963e d8d7 f9be
000002e0: a359 5e3e 51fa 003d 89df 323e 6bc3 3e3c
000002f0: 5bb7 953e 806c 21bf b0a5 e6be 465a 5d3e
00000300: 22f3 c13e d74c 11bf 39a6 033e a445 703d
00000310: cc95 44bf af45 473e 1407 27bf bfd7 cdbd
00000320: a62e 03be d011 ebbd 15e5 7bbe a55e ecbd
00000330: e3c5 e3be 12a1 9abe 90a9 853e c6b3 52be
00000340: 3142 05bf 475e 253e 7344 863e 7ec4 2fbe
00000350: 208f 1abf 25e8 5c3e c98b 88bd dc89 3bbd
00000360: dac7 64bf edaa 42bf 8787 203e 5d1d 613e
00000370: 6bcc 2f3e e789 5b3d 3f2c 433e d288 593e
00000380: 3291 febd 89b0 8a3d 5f0e d6be 72a3 b2be
00000390: 842c 8c3e 51b7 ed3d c2d6 5a3e 065f 853e
000003a0: 5e92 14bf fa75 66bf 8e9a b1be d6eb 383e
000003b0: 57e7 7bbe aabc f9bd f667 71bf 844f 9c3e
000003c0: 66d1 9b3e 92a5 9cbe 930f 913e 01a2 c4be
000003d0: 29d7 23bd c497 febd dde4 a6be 8175 84be
000003e0: d6ce 773e 2817 063f ba47 ecbe c346 70bf
000003f0: ee7f cfbd a5a8 4cbe f794 aa3e 5c8d b6bd
0.19262344 -0.15372653 -0.53726405 -0.005683953 0.2486642 -0.7331656 0.38330445 0.29472703
-0.05686959 -0.4085358 0.055813912 0.17027253 -0.51725614 0.1533617 0.22677486 0.31140223
-0.121156394 0.11811892 0.0010298025 -0.1820165 0.16164184 0.18249448 -0.012135759 -0.0671552
0.16163741 0.16106658 -0.37353525 0.074611835 0.253291 0.12511335 -0.79039276 -0.3172377
0.054167 -0.10486787 0.29174775 0.008186073 -0.6420882 -0.2669517 -0.5886617 0.18214437
0.101025775 0.30503547 -0.09698486 -0.93040895 -0.1326182 -0.16699003 -0.035764843 -0.68292737
-0.39257976 0.22984165 0.2680873 0.06493578 -0.39107582 0.20742944 -0.6495256 0.22094251
-0.57982796 -0.57349056 0.25142726 0.37470734 -0.10013224 -0.1746489 0.099855125 -0.08766272
0.22204356 -0.119867824 -0.9856709 -0.46929553 -0.45911103 -0.32804993 -0.13192363 0.017025393
0.09513436 0.35073933 0.20884147 -0.53397936 0.43524206 -0.67855066 0.036647715 -0.93915594
0.50117886 -0.05459693 -0.6890717 -0.18420938 -0.5415436 -0.45329326 -0.05668328 0.0016434789
-0.12589706 -0.12239642 0.38883385 0.10071282 -0.48534146 0.42437243 0.32421726 0.2563171
-0.05687368 -0.039036084 -0.5729415 -0.22378743 0.0059670573 0.39069164 0.1774129 -0.50587076
-0.23154661 0.118005596 -0.6754424 0.14292233 0.028232986 -0.3563755 0.25661927 -0.3113095
-0.36593756 0.032502882 -0.28804764 -0.032766227 -0.37555918 -0.016603978 0.05327187 0.42074043
-0.48020077 -0.66312003 -0.43374556 -0.65973324 -0.39763787 -0.49980152 -0.07684488 0.061138667
-0.6707011 -0.8075041 0.3136676 0.18901362 0.25575253 0.20852603 -0.20241511 0.3059541
0.0071187825 0.12757726 -0.6253359 -0.3103976 0.13108471 0.02799986 -0.4283823 0.21757653
-0.8409382 0.1956027 -1.022538 0.20819592 0.21301562 0.30514875 -0.075279914 -0.10257599
0.024655845 -0.3077426 -0.61280334 -0.00980657 -0.60260767 -1.0329024 0.24202973 -0.9100924
-0.002051619 -0.09835432 -0.053845357 -0.572452 -0.00325986 0.09187319 0.06600145 0.21724994
-0.038691316 -0.8426932 -0.2222225 0.11903673 -0.3681142 0.2650765 -0.1118301 -0.598906
-0.72668743 -0.9800066 0.15388547 0.10508475 0.011760159 -0.40276012 0.29398575 -0.48797488
0.21713881 0.03148872 0.17468084 0.011643271 0.29241452 -0.6305618 -0.45048285 0.21616468
0.37880808 -0.56757873 0.12856378 0.058660164 -0.7679107 0.19460176 -0.65245175 -0.10050916
-0.12810764 -0.11478007 -0.24599107 -0.115414895 -0.44486913 -0.30201012 0.26105928 -0.2057639
-0.52054125 0.16149245 0.26224098 -0.171648 -0.6037464 0.21572931 -0.06667287 -0.04578577
-0.8936745 -0.7604206 0.156767 0.21983857 0.17167823 0.05359831 0.19059847 0.21243599
-0.124300376 0.06771953 -0.4180784 -0.34890324 0.27377713 0.116072305 0.21370986 0.2604906
-0.5803584 -0.9002377 -0.34688228 0.18058714 -0.24599968 -0.12194188 -0.94299257 0.30529416
0.30433196 -0.3059507 0.28332195 -0.3840485 -0.040000115 -0.12431291 -0.32596484 -0.25870898
0.24199995 0.52379084 -0.46148473 -0.93857974 -0.101318225 -0.19986208 0.33316776 -0.08913681

net.3.bias f4 [8]
00000000: e523 823e fc17 5abe 001d 2a3d 642b 043e
00000010: 67c6 ffbd 6aad bf3d fa2d 8abe 0a44 ffbd
0.2541801 -0.21298212 0.041531563 0.12907177 -0.12489014 0.09359248 -0.26988202 -0.12464149
