Results/glove/best_meta_model_glove.pt (torch, 9065 bytes, 4 tensors)

net.0.weight f4 [64, 16]
00000000: 1996 d63e 69ca d3be ce2d e93d c062 843e
00000010: ab95 04be 514d ec3d 4830 d4be d640 7d3e
00000020: f875 7e3e 474f f1be 2428 593c 48d8 a53e
00000030: 858e f6be 58b9 9c3e bd20 ccbe 75f0 e83d
00000040: f8a6 903e fa5c 8bbd 1bbb 5bbe 6a90 3cbd
00000050: 34b7 9abd cf28 303e 93b5 8dbe 8ea5 31be
00000060: bc3d d13e 003f 653e 610e 0cbe 1ba8 493d
00000070: fab2 0d3d 21cd bc3e 0342 67be c8ac 003d
00000080: 0635 f53d 5a20 f33d fc3b 36bf a96e 683e
00000090: 4f4c 653e 8e07 253e 9196 ea3e e8c3 80bf
000000a0: 7497 543e fa00 073e 78ce 13bf dbcd 593e
000000b0: c77b db3d 3b04 8d3e 2e0c 063f 2db2 d9be
000000c0: c7c6 c23d 7e95 6abd deee 093d fef9 7f3e
000000d0: 0646 e4bf f31e 9b3e bed4 a63e 105f 8d3d
000000e0: 1f55 5b3d 94f9 363d 9fee 293d 83ec d03d
000000f0: d82b 56be c8b4 9f3e 1b89 2a3e 340c 053e
00000100: 21f6 e9bb 92a2 03bf 1193 8d3e dcac bd3e
00000110: 0411 ca3e 66f9 9abd 6c39 9f3e 39a9 87be
00000120: f517 333e b6d3 44bf 4bcf a43e 5313 873e
00000130: 3688 463e dcc7 26bf 7c51 b23e c781 b9be
00000140: f65f cb3e 9e46 a8bd 7424 c03e 1fd8 b03e
00000150: a687 24be e94f 70be 871b 9dbb 4a73 563e
00000160: 5959 9f3e b2d8 4f3d 59ac 903e 7748 883e
00000170: c7e0 6ebe b1c6 a0be 0f25 193c 7b1d d7bd
00000180: 6242 a93e bcd7 d63d ad9f 63be 11d2 ffbd
00000190: 2b4f b83e e08a a4be 8744 e3bd ec03 c9bd
000001a0: 176e b83e 0f53 c8bc ce75 a9bc 35fc 0dbe
000001b0: ef45 b53e 3b0c 23be 6515 3bbe 1047 55be
000001c0: da93 a83e d7e3 f23c 9d0c 8dbe 0fb7 b2bf
000001d0: 04be 84be 4abc 903e 21e6 5d3e b696 ce3d
000001e0: b0b9 743e cc0e 593e d7a9 d6be 8abd 1bbf
000001f0: 8f21 b9bd 5212 a73e 7362 623e 2489 4a3e
00000200: a602 633e d6e4 df3d 07fe 7d3e 6761 043d
00000210: aef6 123e 8532 c63d 008a 8dbf 4ff4 ba3e
00000220: 31e5 023d 1e2c 2abe a24d ea3e 794e fe3d
00000230: cef3 623e 1576 2cbd b3be 57bf c4fe fc3e
00000240: d7a3 36be c8ef c83e 76cb 1a3e b665 363e
00000250: 247e abbe 3d83 2e3e a45e b03e fb2d 5dbf
00000260: 80c5 4ebe dd62 123f 5220 743e 257b 01bd
00000270: f180 2ebf a9e4 5b3d 5f63 bb3e 0240 03bf
00000280: 83c6 9ebd 9de7 c2ba d46f 28be a245 a23e
00000290: 0afa a43e d593 8a3e 8940 0bbf 94ed 6f3e
000002a0: 95c3 a6bd 2e85 0c3b 64fa a4be ad3b 163d
000002b0: c291 f03e b541 a63e 419a c5be 55c4 013e
000002c0: 1ff6 863e 7adb 7dbe a0d1 72be f10f 80be
000002d0: 4054 57be 6be6 ddbc fee1 5c3e b765 d33e
000002e0: 05af 683e f849 cdbd d7e7 1ebe 933e 00bf
000002f0: ec98 5fbe e10f a73e 583a e23e abc2 d13e
00000300: 67e2 6b3d f77b a13d 69fb 7ebe 6bd3 573d
00000310: 7124 abbd d1c3 35be c10f 013d 76af 0dbe
00000320: db79 493e 1fdf 2b3e 5517 213e dd06 1cbe
00000330: bf72 003d f6c5 483e 5ee5 80be 4568 73be
00000340: 40f4 6f3e ff4b c33d 6737 99be 08a9 a03e
00000350: 6908 fd3d 034b cebf 92c4 183e 1cb6 7e3e
00000360: f603 903e 4132 2c3e e385 7cbe f61e cc3e
00000370: 7c2a 2d3e 9d3e c8be f71e bd3e 3abc 813e
00000380: 56a9 c63e 7404 cabe 8b92 b83e f6b7 dd3c
00000390: 48cc cd3e acc5 3bbd fa65 a43d 5975 a0be
000003a0: 543c cc3e 8b86 9ebe 72af ce3e 82c2 77bd
000003b0: 6d78 ab3e 633e 8abd 7261 003e 784a 22bf
000003c0: 5f0c 1e3e f300 693e d62a f03e 31f5 6d3e
000003d0: 7f6f 1ebd b9ec 34bf 1189 a23d 69ad b5be
000003e0: c546 9f3e 5486 5d3e d2e8 a53e e254 903e
000003f0: 142a 4f3e b55b 36bf fe7b 93bd 5654 f7be
0.4191139 -0.41365364 0.1138569 0.2585659 -0.12947719 0.115381844 -0.41443086 0.24731764
0.24849689 -0.47130796 0.013254199 0.32391572 -0.4815561 0.30610156 -0.39868727 0.113739885
0.28252387 -0.06804843 -0.21458094 -0.04603616 -0.075544745 0.17203067 -0.27677593 -0.1734831
0.40867412 0.22387314 -0.1367736 0.049232583 0.034594513 0.3687525 -0.22583775 0.031414777
0.11973004 0.11871405 -0.7118528 0.22698463 0.2239239 0.16116163 0.45817998 -1.0059786
0.207609 0.13183966 -0.5773692 0.21269934 0.10716968 0.2754229 0.52362335 -0.4251875
0.0951057 -0.057271473 0.033675067 0.24997708 -1.783387 0.3029705 0.32584184 0.06902897
0.053547975 0.04467161 0.041487332 0.10201361 -0.20915163 0.31192613 0.16653864 0.12992936
-0.0071399366 -0.5141994 0.27651265 0.37045944 0.39466107 -0.075671 0.31098497 -0.26496294
0.17489608 -0.76885545 0.32189402 0.2638193 0.19387898 -0.6514871 0.34827793 -0.36231825
0.3972165 -0.08216594 0.37527812 0.34539887 -0.16067371 -0.23467983 -0.0047945413 0.20942417
0.31122854 0.050743766 0.2825649 0.26617786 -0.23327933 -0.3140159 0.009347214 -0.1050367
0.3305846 0.10490367 -0.2222888 -0.12491239 0.359979 -0.32137203 -0.11097055 -0.09815201
0.36021492 -0.024453668 -0.020686056 -0.1386574 0.35404918 -0.15922634 -0.1826988 -0.2082789
0.32925302 0.029649658 -0.27548686 -1.3962115 -0.2592622 0.28268653 0.21669818 0.100873396
0.23898959 0.21197051 -0.41926453 -0.6083609 -0.09039604 0.32631165 0.22107868 0.19778877
0.22168979 0.10932319 0.24803935 0.032319453 0.14351913 0.096776046 -1.1057739 0.36514518
0.031956855 -0.16618392 0.45762354 0.12417311 0.22163317 -0.0421048 -0.8427536 0.4941312
-0.17835937 0.3924544 0.15116677 0.17812237 -0.33494675 0.17042251 0.34447205 -0.86398286
-0.20192528 0.57182103 0.23840454 -0.03161158 -0.681655 0.053684864 0.36599252 -0.51269543
-0.07752707 -0.0014870052 -0.16448909 0.3169375 0.32222015 0.27065912 -0.5439535 0.23430473
-0.08142773 0.0021441686 -0.32222283 0.036678005 0.46986204 0.32472005 -0.3859425 0.12672551
0.2635965 -0.24790755 -0.23712778 -0.25012162 -0.21028233 -0.02708741 0.21570584 0.4128854
0.22723015 -0.10023874 -0.15518127 -0.5009548 -0.21835679 0.32629302 0.44185138 0.40968832
0.05758896 0.078849725 -0.24900593 0.05269186 -0.0835656 -0.1775048 0.031509165 -0.13836464
0.1967539 0.16784333 0.15731557 -0.15236993 0.03135943 0.19606766 -0.25174993 -0.23770244
0.23433018 0.095359795 -0.2992508 0.3137896 0.1235512 -1.6116642 0.14918736 0.24874157
0.28128022 0.16816045 -0.24660449 0.3986737 0.16910738 -0.3911027 0.36937687 0.25338918
0.38801068 -0.39456522 0.36049303 0.027065258 0.40194917 -0.04584281 0.08027263 -0.3133953
0.39889777 -0.30962023 0.4036823 -0.06048823 0.33490315 -0.067501806 0.12537172 -0.6339488
0.15434407 0.22754268 0.4690768 0.23238064 -0.03868055 -0.7067371 0.079362996 -0.35483864
0.3110868 0.21633273 0.3240419 0.2818976 0.20230895 -0.71233684 -0.07201384 -0.4830653

net.0.bias f4 [64]
00000000: 17bc 3c3e ac02 6a3d c10b cf3c 7c72 0a3e
00000010: a5e9 563c 69ac 0c3d bb9b 683e e551 be3d
00000020: ba77 4f3e 6fcb 073e 7ca4 883d 851c 7f3d
00000030: 0924 8abe ed36 95bd 269f 1f3d 2307 3b3d
00000040: a236 323e d9ab a0bc 8d4e 48bd f44d f43c
00000050: 6b12 08be bafd 6a3d b0cc ddbc 0b28 103e
00000060: 8e0a 05bc 27b6 88bd d307 763e 67b9 6a3d
00000070: 3e7e c53d 14f8 963e 45ab 573d f4cd b4bc
00000080: 4e8a 08bb 9e15 203e 422a 943e cacf 503e
00000090: 117f 4c3e ef44 b33d a0d4 633e 0e4c 9dbd
000000a0: b555 813d 2972 f9bd 7a7c f63c 7c11 c93d
000000b0: b06e 503e aea0 003c e91c 843e 1dc8 6c3d
000000c0: eb76 353e 49b4 983c cf70 133e a360 2f3e
000000d0: 241d c6bd d1a1 4d3e ad05 c13d 8565 9eba
000000e0: a56b 473d 05a7 6c3d 8135 033e cd6f 6d3e
000000f0: 1b77 753d 7c8f fcbc 0f2c c53a 502b 403e
0.18431126 0.057131454 0.02527416 0.13520235 0.013117229 0.03434411 0.22715656 0.09292964
0.20260516 0.13261198 0.06671998 0.062283058 -0.26980618 -0.07285867 0.038970135 0.045661103
0.17403653 -0.019613193 -0.048903037 0.029822327 -0.13288276 0.05737088 -0.027075142 0.14077775
-0.008120192 -0.06675368 0.24026422 0.05730572 0.096432194 0.29486144 0.05265357 -0.022070862
-0.002083439 0.15633246 0.2893849 0.20391765 0.19970347 0.087533824 0.22249079 -0.07680522
0.063151754 -0.121799774 0.030088652 0.09817788 0.20354724 0.007850809 0.25803307 0.05780803
0.17721145 0.018640654 0.14398502 0.17126708 -0.09673527 0.2008126 0.09424911 -0.0012084699
0.048686642 0.05777647 0.12813379 0.2318718 0.05992804 -0.030830137 0.0015043038 0.18766522

net.3.weight f4 [8, 64]
00000000: 7efd cf3d 795d 0a3e 22f9 d6bd b600 133e
00000010: 581f 1bbd ba31 673e e97d 763e 9a0d 873e
00000020: b810 e23d 3727 a1be b435 63be fbe9 2b3e
00000030: b325 23bd ee4f 823e c09f 433e 6145 c93d
00000040: 1d2d cabe 60cc 0abf 5ad0 20bf 3100 ad3d
00000050: 8d9e 08be a961 04bf a180 93be 7acc a7bd
00000060: 00c6 153e cad8 003e d763 4b3e c00f ff3d
00000070: fa0d 0fbf 584b 63bc b7b7 063d a9a5 2d3e
00000080: cd88 8c3e 1287 33bf 5ff3 89bd af02 0a3e
00000090: c469 1f3e 72f2 dfbc 3c7d 5d3e b96c e13d
000000a0: fc46 c93c ddb9 873e c995 f4be eb8e 1cbe
000000b0: 0405 2e3d 3014 cd3d 75f3 a23d 19b5 edbd
000000c0: e9fa b9be a118 7cbd f890 08be 1f99 3f3e
000000d0: 27f3 813c df74 02bf 2ec2 063e 7cbf c7be
000000e0: 50ba 8dbc 6008 2f3e 176a 19bf 881c 863e
000000f0: 74eb 843e e166 1a3e 73d1 33bf 68d7 833e
00000100: d68a e3be 4b80 c7bd a039 76bd 5fbf 20be
00000110: af7f 0abf f2ff 5bbe 07f7 9c3d c4a7 333e
00000120: 962e e0bd a5e6 ab3e 8081 83be 35b9 03bf
00000130: ee7c cdbd ba28 73be fbcc 0bbf 7411 5e3e
00000140: 5784 ecbe cf7e 193e 32a3 04be b90a fabd
00000150: 89fe c1bd f491 ae3e 524c 9ebe e111 9dbe
00000160: abfe 2bbf 894e 313d 3804 083e d53f 23bf
00000170: c704 6f3e ecbb e0be 537d 0ebe a219 313e
00000180: 2c7e 3bbf 82cf c9bd fc96 7bbe 5716 e0bc
00000190: 1ce6 f5ba ce4d 8abe e230 a9bd acc3 3cbf
000001a0: b076 493e 6878 4bbe 1a87 53be 8638 dbbe
000001b0: afb1 06bf d456 4b3e f882 25bf 5287 01bf
000001c0: 041c 973e 3f03 8b3c ef26 2f3e f1d9 18bd
000001d0: 7dcb 583d eb05 55be 6330 45be 155d 823e
000001e0: 9fed 8fbe d5d2 903d 69fc 44be baaa 9fbe
000001f0: 3876 493e 1445 4e3e 581f cc3e f446 503c
00000200: 89d0 0d3e 84df aabe 886b 93bf 4e51 45bd
00000210: 49d4 a93e 4d92 953e 5dc8 ecbd 95f0 aebe
00000220: 04ba 693e 9d4a 333e c174 f4be bb43 79be
00000230: 1564 363d bb51 43bf 0166 603e 0f78 933e
00000240: 4d8c 723e 977c 8e3e c7f9 543e 9efa 43bf
00000250: aa65 9abc 8e26 6a3d 2eeb 243e 7059 d7be
00000260: 5825 1b3e 744a 35bf c9e2 6dbe 2ff2 243e
00000270: 6c1b 84be 1596 fcbe d1c2 953e c7d8 4cbf
00000280: 02b7 ecbe b7f5 863e df73 78be 7aa1 a9be
00000290: 251a 32be cf2c 77be f8d9 8dbd 1671 2b3e
000002a0: 6077 1abf 6d88 0cbf e7ba a23e 3b1e 34bf
000002b0: 1edb ee3d 7a49 1f3d fb3c 7b3e b592 2abe
000002c0: d04b a93d 926a 17bf 2abe 2fbe dbb4 893e
000002d0: 61ad 1dbf 1ead 50be 61f4 a33e 4b4a ddbd
000002e0: eb5f f2be 271f 413e f229 2a3e 5aa8 17bc
000002f0: 620e 8cbe a1f5 17bd 4921 a4bc 4494 e1be
00000300: f25d 3d3e 4226 83be e761 08bc e442 463e
00000310: f574 a43e f580 613e 42a1 3dbe 63a2 76bf
00000320: 4a8b 653d fc4d 313e 5b15 283e c374 f6be
00000330: 37c9 a5bd ba91 763e fba4 cabd 2a96 1a3e
00000340: 29ee 7abc f175 80bf b910 3c3e a9c7 a23e
00000350: 2aa0 3cbe 8893 2f3e 06e9 1cbe ee7c 453e
00000360: ddde 0abf 3589 4d3e d24a 87be 5c86 cbbe
00000370: b4c2 0fbe 3851 6a3e 7ebc 0cbf 1cfd 7cbf
00000380: acaf 61bd bd26 d5bd b8d0 59be aaef afbe
00000390: 75db 7c3e a6e2 6e3e 08a4 93be fe57 cabd
000003a0: 9124 e9be fb42 f2be 524f 7d3e e4d6 693e
000003b0: 06e5 95be 7169 21bf 3d71 87be 1a8d 4e3e
000003c0: 06cc 873e f08d da3d 3c2a 47bf 21ea cf3d
000003d0: b888 8ebd b42a 123d 8ce1 aa3d 84ef 8abd
000003e0: 6f02 4f3e b726 773e 6fed 9ebe 252e f6be
000003f0: ac16 a6be 1526 17bd 172c 663e c708 31be
0.10155772 0.1351222 -0.10496737 0.1435574 -0.03787169 0.22577563 0.24071468 0.26377565
0.11038345 -0.3147523 -0.22188455 0.16788475 -0.039830875 0.25451607 0.19103909 0.09827686
-0.39487544 -0.542181 -0.6281792 0.08447302 -0.13341732 -0.5171152 -0.28809074 -0.08193298
0.14626312 0.12582698 0.19862305 0.12454176 -0.558807 -0.013872944 0.032890048 0.16957726
0.2744812 -0.70127976 -0.067358725 0.13477586 0.1556769 -0.027337287 0.21629804 0.11007065
0.02456998 0.2650899 -0.47770527 -0.15288894 0.042485252 0.10013616 0.07956592 -0.11606807
-0.36324242 -0.061546925 -0.13336551 0.18710755 0.015863014 -0.5095958 0.13160011 -0.39013278
-0.017300755 0.17093039 -0.59927505 0.26193643 0.25960886 0.15078308 -0.7024147 0.2575028
-0.4444186 -0.09741267 -0.06011355 -0.15698002 -0.5410108 -0.21484354 0.07664304 0.17544466
-0.109463856 0.33574405 -0.25684738 -0.5145448 -0.10033594 -0.23746005 -0.5460965 0.21686345
-0.46194717 0.1498978 -0.12952879 -0.122090764 -0.09472377 0.34095728 -0.30917603 -0.30677703
-0.6718547 0.043287788 0.1328286 -0.63769275 0.23341666 -0.43893373 -0.13914995 0.17294934
-0.732394 -0.09854032 -0.24569315 -0.027354402 -0.0018760595 -0.27012485 -0.08261277 -0.7373607
0.19674182 -0.1987015 -0.20657006 -0.4281656 -0.52614874 0.19857341 -0.6465297 -0.5059711
0.29513562 0.016969321 0.17104696 -0.03731722 0.052928437 -0.20803039 -0.1925674 0.2546164
-0.28110978 0.07071463 -0.19236912 -0.31184942 0.19674003 0.20143539 0.39867663 0.012712229
0.13849081 -0.33373654 -1.1517191 -0.04817324 0.33169773 0.2921318 -0.11561654 -0.34167925
0.22824866 0.17508931 -0.47745326 -0.24342243 0.04452904 -0.76296586 0.21913911 0.28802535
0.23686333 0.2782943 0.20798407 -0.76554286 -0.018847305 0.057165675 0.16105339 -0.42060423
0.15150964 -0.7081673 -0.23231043 0.1610801 -0.2580217 -0.49333254 0.29250196 -0.80018276
-0.46233374 0.2635934 -0.24262951 -0.3313101 -0.17392786 -0.24138187 -0.0692634 0.16742358
-0.603384 -0.5489567 0.3178322 -0.7035863 0.11662887 0.038888432 0.24534981 -0.16657527
0.08266413 -0.5914699 -0.17162386 0.26895794 -0.6159268 -0.20378539 0.32022384 -0.10805186
-0.47338805 0.1885954 0.16617563 -0.009256447 -0.27354723 -0.037099484 -0.020035403 -0.4405843
0.18492869 -0.25615126 -0.008324123 0.19361454 0.3212048 0.2202185 -0.18518546 -0.9634153
0.05604104 0.17314905 0.16414396 -0.48135957 -0.08095019 0.24079028 -0.09894749 0.15096346
-0.015315571 -1.0035993 0.18365754 0.31792954 -0.18420473 0.17146122 -0.15323266 0.19285938
-0.5424631 0.20071872 -0.2642427 -0.39750946 -0.14039117 0.22882545 -0.54975116 -0.98823714
-0.055099174 -0.10407779 -0.21271026 -0.34362537 0.24693091 0.23328647 -0.28836083 -0.098800644
-0.4553571 -0.47316727 0.2473729 0.2283588 -0.29276294 -0.63051516 -0.2645358 0.20171013
0.26522845 0.10671604 -0.7779882 0.101520784 -0.06959671 0.035685256 0.08343801 -0.06783965
0.20215772 0.24135862 -0.31040522 -0.4808208 -0.32439172 -0.036901552 0.22477756 -0.17288505

net.3.bias f4 [8]
00000000: 66f2 cb3c e06b 7c3b a75c 173e 0b1b 313d
00000010: 53bc a23d 5969 cf3c 574d 5dbd ad9f 46be
0.024895858 0.0038516447 0.14781438 0.04323868 0.07946076 0.025318788 -0.054028835 -0.19396849
