Results/first/best_meta_model.pt (torch, 9005 bytes, 4 tensors)

net.0.weight f4 [64, 16]
0.49314198 -0.24859625 0.22375676 -0.5149827 0.22177708 0.3985948 -0.06919557 0.08786062
0.32642996 -0.4475561 -0.039093323 -0.9998513 -0.12293907 0.38120362 -0.15458502 0.22079748
-0.89676076 -0.009182342 -0.03853808 0.08909232 0.0246536 0.0662928 -0.063372426 -0.029456487
-1.307878 0.061135843 0.19631569 0.30905506 0.10523845 0.30114305 0.051412277 0.21372557
-0.15168382 -0.041680153 -0.24547611 0.26230437 0.26218712 0.27181056 -0.64570165 -0.12273735
-0.43804687 0.19501993 0.25700948 0.3439946 0.63588417 0.23757029 -0.37299132 0.016603341
0.35134834 0.06520291 0.097940944 0.35990557 0.044253036 0.24971503 -1.1353992 -0.82744986
0.33287007 0.059932373 -0.013988467 0.2183966 0.02121178 -0.002158888 -0.2583086 -0.33789232
0.2708939 -0.40600392 0.29428542 0.20972161 0.26110747 -3.276148 0.22013037 0.22970495
0.092253864 -0.1859948 0.10333599 -0.031030562 0.005921176 -0.8309712 0.028020239 0.19096558
-0.18282054 0.18951873 0.07542512 -0.55313605 0.33395407 0.17446539 0.21367316 -1.388617
-0.13884848 0.43620592 0.05301207 -0.35469297 0.091923475 0.059200685 0.39585668 -0.46896148
-0.10996265 0.18700212 0.261036 -1.8487685 0.051964846 0.1795093 0.13835877 0.34447455
0.03903228 0.15910962 0.29675192 -1.9899598 0.057825044 0.09738046 0.20366623 0.0022212586
-0.11969038 -0.10631878 -0.030048607 -0.33402795 0.21272226 0.25467646 0.20876624 -0.30560592
0.0006699131 0.027846359 -0.12929489 -0.3064968 0.21560211 0.15169223 0.5208816 -0.45132476
-0.11939996 -0.04315607 0.29622346 -0.13514426 -0.0353654 0.18205157 -0.2995826 -0.07771823
-0.17042716 0.085477225 0.2849279 0.08493341 0.08721063 0.4789224 -0.11781396 0.16277038
-0.16272888 0.17217366 0.13297519 -0.4993739 -0.0062152813 0.33363533 -0.4276109 0.17160627
-0.13547947 -0.022560526 -0.2368167 -1.3349732 0.3334437 0.34627488 -0.2709552 0.2722365
-0.041859653 -0.021070562 -0.053059056 0.25454903 0.369879 -0.13855737 0.096666284 -0.1862629
0.16053855 -0.040199865 0.037867393 0.28842145 0.3039229 -0.049089294 0.29399127 -0.54729486
-0.44525817 -0.35370198 0.1535353 -0.12123393 -0.33813548 0.21008544 -0.084653005 0.17219959
-0.5736477 -0.16323964 0.25072914 0.13229524 -0.54819405 0.3613706 0.12783554 0.34490123
0.20266072 0.19752257 0.17577082 -0.68949264 -2.83195 0.29263142 0.10723338 0.353545
0.15724307 0.13981715 0.1359021 -0.39373857 -0.064277224 0.19575995 0.11303664 0.108939566
0.16405201 0.15708742 -1.3823049 -0.06289599 0.21933793 -0.25541696 -0.04962252 0.04050897
0.36649567 0.12185198 -0.18762296 0.04675656 0.31962338 -0.05500001 0.008517598 0.16894232
0.2879124 -0.3413071 -0.27409858 0.2832426 -0.29204354 0.3990122 0.15493898 -0.18194893
0.31771308 -0.25770536 -0.7627883 0.21720356 -0.17568429 0.38983208 0.31604925 0.38278425
-0.16487621 -1.3038822 0.33624306 0.06443369 0.4283065 0.07509855 0.0038066108 -0.082521245
-0.21511014 -0.9941172 0.37625667 0.12127175 0.10709831 -0.09665552 -0.7679222 0.13022612
00000000: 1b7d fc3e 0490 7ebe 7e20 653e e8d5 03bf
00000010: 8819 633e 9e14 cc3e 68b6 8dbd 45f0 b33d
00000020: d421 a73e 1326 e5be 5220 20bd 41f6 7fbf
00000030: 7bc7 fbbd 1f2d c33e 894b 1ebe bc18 623e
00000040: 1d92 65bf 8971 16bc 1bda 1dbd 0976 b63d
00000050: 59f6 c93c 85c4 873d 67c9 81bd bb4e f1bc
00000060: 8c68 a7bf 9469 7a3d fb06 493e 773c 9e3e
00000070: 4287 d73d 6c2f 9a3e ae95 523d e0da 5a3e
00000080: 0153 1bbe cfb8 2abd 175e 7bbe c24c 863e
00000090: 643d 863e c12a 8b3e b44c 25bf b85d fbbd
000000a0: ae47 e0be 4eb3 473e bf96 833e 0f20 b03e
000000b0: 4ec9 223f a045 733e b8f8 bebe bb03 883c
000000c0: eee3 b33e 1a89 853d 4395 c83d 8b45 b83e
000000d0: ac42 353d 4cb5 7f3e c354 91bf c1d3 53bf
000000e0: f26d aa3e a67b 753d e22f 65bc 5ca3 5f3e
000000f0: 54c4 ad3c 217c 0dbb 0641 84be 3900 adbe
00000100: 9bb2 8a3e bfdf cfbe 94ac 963e 43c1 563e
00000110: e1af 853e 69ac 51c0 db69 613e c637 6b3e
00000120: 98ef bc3d 6c75 3ebe d2a1 d33d ce33 febc
00000130: 6d06 c23b 87ba 54bf b38a e53c 7b8c 433e
00000140: 4f35 3bbe 3311 423e 7c78 9a3d 539a 0dbf
00000150: 07fc aa3e 0ea7 323e 23cd 5a3e 34be b1bf
00000160: 4c2e 0ebe 6256 df3e 2f23 593d 519a b5be
00000170: 6042 bc3d 6b7c 723d baad ca3e b81b f0be
00000180: 1934 e1bd 7c7d 3f3e 83a6 853e 72a4 ecbf
00000190: 17d9 543d 49d1 373e ecad 0d3e f85e b03e
000001a0: 50e0 1f3d a2ed 223e deef 973e 01b7 febf
000001b0: f4d9 6c3d 686f c73d e18d 503e 8992 113b
000001c0: 3b20 f5bd a9bd d9bd 7f28 f6bc b605 abbe
000001d0: ddd3 593e f464 823e d1c6 553e 6178 9cbe
000001e0: 1b9d 2f3a 0c1e e43c e165 04be 26ed 9cbe
000001f0: cdc6 5c3e 3555 1b3e 7f58 053f 0a14 e7be
00000200: f787 f4bd 6bc4 30bd 9aaa 973e 4263 0abe
00000210: 4fdb 10bd ba6b 3a3e e462 99be bc2a 9fbd
00000220: 7584 2ebe af0e af3d 12e2 913e 91f1 ad3d
00000230: 7d9b b23d 5135 f53e 7248 f1bd 47ad 263e
00000240: 66a2 26be 4b4e 303e a62a 083e f0ad ffbe
00000250: 8fa9 cbbb 40d2 aa3e d1ef dabe 8eb9 2f3e
00000260: 21bb 0abe dad0 b8bc 1480 72be 67e0 aabf
00000270: 22b9 aa3e f14a b13e a4ba 8abe 9562 8b3e
00000280: 0775 2bbd 2c9c acbc 7454 59bd 4054 823e
00000290: c860 bd3e fce1 0dbe f9f8 c53d b4bb 3ebe
000002a0: 3864 243e 9da8 24bd d71a 1b3d faab 933e
000002b0: c89b 9b3e db11 49bd 0686 963e 841b 0cbf
000002c0: e1f8 e3be 6d18 b5be 5c38 1d3e 7f49 f8bd
000002d0: 1820 adbe a320 573e 8e5e adbd 1755 303e
000002e0: 93da 12bf 4b28 27be 925f 803e 6778 073e
000002f0: 7256 0cbf 9105 b93e 52e7 023e e596 b03e
00000300: 4b86 4f3e 5b43 4a3e 44fd 333e 9782 30bf
00000310: ab3e 35c0 c9d3 953e 2d9d db3d da03 b53e
00000320: 5404 213e 3a2c 0f3e ec29 0b3e 1a98 c9be
00000330: c7a3 83bd 4c75 483e c17f e73d b51b df3d
00000340: 40fd 273e 86db 203e 5eef b0bf 9dcf 80bd
00000350: 1f9a 603e 03c6 82be fc40 4bbd bcec 253d
00000360: 52a5 bb3e 888d f93d 3c20 40be cf83 3f3d
00000370: ada5 a33e b147 61bd 658d 0b3c 37ff 2c3e
00000380: 4169 933e cebf aebe a656 8cbe 2d05 913e
00000390: bb86 95be 544b cc3e 53a8 1e3e d250 3abe
000003a0: 4aab a23e f5f1 83be 1846 43bf 9c6a 5e3e
000003b0: 95e6 33be 1298 c73e 35d1 a13e 4cfc c33e
000003c0: 4fd5 28be 9de5 a6bf 0d28 ac3e cff5 833d
000003d0: fd4a db3e 45cd 993d 5578 793b e600 a9bd
000003e0: d545 5cbe 777e 7ebf b7a4 c03e 535d f83d
000003f0: 5c56 db3d 54f3 c5bd 8d96 44bf ff59 053e

net.0.bias f4 [64]
0.009961351 0.1782632 0.060476337 0.062329266 0.056247104 0.18760894 0.11244279 0.16613168
0.020078557 0.19048229 0.036766626 0.14079186 -0.0036900344 0.11082355 0.07638442 0.1796478
0.25707367 -0.019547982 -0.006316915 -0.10238456 -0.14031644 0.105039224 0.0357024 0.10192168
0.061948545 -0.015863381 0.11487882 0.14000072 -0.057762995 -0.07624284 0.16855267 0.18820281
0.0982211 -0.0556519 -0.0045009786 0.029740209 0.22183888 0.21610373 -0.08471042 -0.0771821
0.08866035 -0.04840336 0.15401237 0.0669635 0.093962304 0.10062472 0.079339124 0.101434045
0.08337072 -0.17215483 0.06579188 0.11393541 0.100076996 0.013356831 0.08022845 0.281844
-0.04313775 0.025731536 0.009254999 0.119499736 0.1121909 -0.08281319 -0.04017848 0.063778535
00000000: ef34 233c a18a 363e 09b6 773d f94c 7f3d
00000010: 5d63 663d 8f1c 403e 6848 e63d 6c1e 2a3e
00000020: c97b a43c ca0d 433e 9a98 163d be2b 103e
00000030: 81d4 71bb 75f7 e23d 6f6f 9c3d 98f5 373e
00000040: 299f 833e 1723 a0bc 20fe cebb ffae d1bd
00000050: 1daf 0fbe ce1e d73d ae3c 123d 50bc d03d
00000060: c2bd 7d3d ecf3 81bc 9645 eb3d 595c 0f3e
00000070: e498 6cbd 3525 9cbd 1299 2c3e 3db8 403e
00000080: 2528 c93d 3ff3 63bd f27c 93bb bda1 f33c
00000090: bb29 633e 4c4a 5d3e a87c adbd a611 9ebd
000000a0: 8f93 b53d 9a42 46bd 6bb5 1d3e 2924 893d
000000b0: 4f6f c03d 5514 ce3d 8d7c a23d a7bc cf3d
000000c0: 45be aa3d 5b49 30be e5bd 863d f856 e93d
000000d0: 2bf5 cc3d 9cd6 5a3c d04e a43d db4d 903e
000000e0: 36b1 30bd f1ca d23c 48a2 173c 47bc f43d
000000f0: 58c4 e53d f699 a9bd 3192 24bd 529e 823d

net.3.weight f4 [8, 64]
0.18679044 -0.9382583 -0.2145322 0.23594278 0.28729564 -0.18613684 -0.20397452 -0.03664594
-0.16988286 -0.18033604 -0.04040787 -0.2819062 0.28911966 0.17817275 0.18300118 -0.12960845
0.096091315 0.19350211 -0.7061303 -0.73690057 0.19677036 0.12496154 -0.12207416 0.2643921
-0.1771925 0.23325907 0.23158303 -0.009088463 0.20186703 0.02597281 -0.20726086 0.22457467
0.11180891 0.08466013 0.14888185 0.035308186 0.18180685 0.14538176 0.2032362 -0.022858197
0.064276315 -1.3503144 -1.4282521 -0.060608994 0.16082764 -0.0067981854 0.11257857 -0.6433406
-0.18296348 -0.10671717 0.15414467 -0.10145929 -0.69389963 0.13261592 0.0063720136 0.12516008
-0.5879724 0.42440748 0.11858476 0.0695116 0.16312149 0.35953614 0.1699935 -0.15762919
-0.4132795 -0.06864106 -0.07920463 -0.14376825 -1.0722437 0.16809222 0.3079157 -0.1045696
-0.3088461 0.04491864 -0.14834943 -0.47680408 0.15049797 0.01585334 -0.51726115 -0.90002966
0.1486516 -0.5651716 0.33728006 0.3233024 0.27168122 0.09907307 0.28368717 0.2752483
-0.2665081 -0.52603185 0.103189886 -0.17268057 0.25954908 0.14752708 0.19382109 -0.47662532
-0.21380892 0.0054309247 -0.4267927 -0.031252924 -0.19611283 -0.42301396 -0.07219252 0.0038075096
-0.25811526 -0.51812434 0.2691287 0.29123095 -0.0024689916 0.08878833 -0.14832182 -0.4636552
-0.3949351 -0.028224172 -0.7917355 -0.63730806 0.24319722 0.2192487 -0.37762037 -0.57897645
0.233816 -0.040178657 -1.0797014 -0.012601747 -0.14936084 -0.66932243 -0.050927274 -0.1943783
0.030141568 0.23910214 0.015366959 -0.054836806 0.20659468 -0.033810385 0.10953478 -0.22065417
0.2535955 -0.106670365 -0.10093412 0.17518581 -0.045654755 -0.899762 -0.628348 0.24362884
-0.53457075 -0.52568096 -0.0127478605 0.1602173 -0.4984147 -0.43044722 0.23357712 0.27057332
-1.2324646 -0.03277692 -0.17811376 -0.6300127 -0.93161696 -0.23875885 -0.60055184 0.0317574
0.2898553 -0.75714874 -0.17313474 -0.57979226 0.25443503 0.091277726 0.009003742 0.05740024
0.09765856 0.2230877 0.018709598 0.22988154 0.03995387 0.1784627 -0.8776629 0.29450443
-1.1410699 0.019244175 0.12174666 0.26173928 0.13890319 0.26327032 -0.33129328 0.16289416
-0.82383543 0.23844509 0.16594389 -0.7457923 0.1073283 0.15437338 0.13078147 -0.38071766
-0.5958251 0.16892172 0.15176485 0.2032696 0.16054028 -0.30852437 -1.5959303 -0.33444378
-0.18763116 -0.75847 0.23070352 0.036510594 -0.66311836 -0.051198702 0.1382691 0.17328593
0.20403284 0.18212582 -0.017412923 0.35722384 -1.3378185 -0.46152297 0.33357978 -0.0403235
-0.005089474 -0.102503635 0.2715113 -0.13707975 0.2259812 -0.4781483 0.15471211 -0.22342893
-0.10571969 -0.47133505 -0.4009532 0.2902814 -0.06299073 -0.5517197 0.1728856 0.22708452
-0.34766474 0.25051132 0.2638568 -0.10274808 -0.661305 -0.76648074 -0.5220675 0.2802651
0.07431098 0.024149906 0.2623283 0.04175859 0.18175107 0.2650061 -0.2626744 -0.017680166
0.18753032 0.29964304 0.0113571435 0.06409671 -0.05190605 0.19396637 -1.1791089 0.2082956
00000000: fe45 3f3e b231 70bf 54ae 5bbe fc9a 713e
00000010: 6a18 933e a89a 3ebe b2de 50be 0e1a 16bd
00000020: c6f5 2dbe 03aa 38be b982 25bd 0256 90be
00000030: 7e07 943e eb72 363e a964 3b3e 14b8 04be
00000040: 86cb c43d 6b25 463e f5c4 34bf 84a5 3cbf
00000050: 2b7e 493e d6eb ff3d 0402 fabd 675e 873e
00000060: f371 35be 77db 6e3e 1a24 6d3e c7e7 14bc
00000070: 3bb6 4e3e eec4 d43c 313c 54be e7f6 653e
00000080: 12fc e43d 4a62 ad3d 7c74 183e 519f 103d
00000090: 932b 3a3e f5de 143e 271d 503e 1d41 bbbc
000000a0: 4da3 833d 1ad7 acbf f7d0 b6bf 2341 78bd
000000b0: 00b0 243e 50c3 debb 988f e63d f8b1 24bf
000000c0: c75a 3bbe 888e dabd 1ad8 1d3e e3c9 cfbd
000000d0: 68a3 31bf 78cc 073e 53cc d03b f729 003e
000000e0: 5c85 16bf f04b d93e 91dc f23d 195c 8e3d
000000f0: 5209 273e 1f15 b83e c712 2e3e 8c69 21be
00000100: 5f99 d3be af93 8cbd 0936 a2bd fc37 13be
00000110: 483f 89bf 5e20 2c3e 20a7 9d3e 9628 d6bd
00000120: 1321 9ebe 9cfc 373d eae8 17be aa1f f4be
00000130: 241c 1a3e ddde 813c 3a6b 04bf 5868 66bf
00000140: 2038 183e 16af 10bf f9af ac3e e487 a53e
00000150: cd19 8b3e d2e6 ca3d 723f 913e 58ed 8c3e
00000160: c073 88be 06aa 06bf 3855 d33d 2dd3 30be
00000170: 9ee3 843e 5711 173e 0979 463e 3c08 f4be
00000180: baf0 5abe e6f5 b13b 9384 dabe 1103 00bd
00000190: cdd1 48be 4995 d8be acd9 93bd 6987 793b
000001a0: af27 84be cca3 04bf 3dcb 893e 391c 953e
000001b0: cece 21bb a8d6 b53d ade1 17be 3764 edbe
000001c0: ef34 cabe 6136 e7bc 2daf 4abf 9f26 23bf
000001d0: b108 793e bb82 603e 7557 c1be cd37 14bf
000001e0: 766d 6f3e 6092 24bd a833 8abf 8f77 4ebc
000001f0: 0cf2 18be b758 2bbf 1e99 50bd 1b0b 47be
00000200: 73eb f63c 31d7 743e b3c5 7b3c 8f9c 60bd
00000210: 8e8d 533e c27c 0abd c553 e03d 2bf3 61be
00000220: 45d7 813e fe75 dabd 8cb6 cebd e963 333e
00000230: 7b00 3bbd cd56 66bf 6adb 20bf d779 793e
00000240: a1d9 08bf 0793 06bf 67dc 50bc 0110 243e
00000250: 3630 ffbe 9463 dcbe d72e 6f3e 9688 8a3e
00000260: 66c1 9dbf 1741 06bd 7463 36be 8348 21bf
00000270: 737e 6ebf 337d 74be c4bd 19bf 0c14 023d
00000280: ea67 943e 80d4 41bf 3c4a 31be 446d 14bf
00000290: 4f45 823e d1ef ba3d 6e84 133c 841c 6b3d
000002a0: 3601 c83d 1a71 643e df44 993c 1166 6b3e
000002b0: aba6 233d edbe 363e 84ae 60bf 49c9 963e
000002c0: 940e 92bf f6a5 9d3c 5056 f93d b102 863e
000002d0: a33c 0e3e 5ecb 863e 469f a9be bacd 263e
000002e0: e1e6 52bf f32a 743e 32ed 293e 3fec 3ebf
000002f0: f1ce db3d 0e14 1e3e 94eb 053e 6ded c2be
00000300: fe87 18bf d1f9 2c3e 3f68 1b3e e825 503e
00000310: ac64 243e e8f6 9dbe 7247 ccbf 373c abbe
00000320: 6222 40be 172b 42bf 8b3d 6c3e 228c 153d
00000330: 20c2 29bf bbb5 51bd 6a96 0d3e de71 313e
00000340: fced 503e 317f 3a3e 8ca5 8ebc 0be6 b63e
00000350: a33d abbf bd4c ecbe f8ca aa3e 412a 25bd
00000360: 9ac5 a6bb 6ded d1bd 8703 8b3e a25e 0cbe
00000370: 9e67 673e dbcf f4be da6c 1e3e 8eca 64be
00000380: 9183 d8bd d452 f1be bd49 cdbe c39f 943e
00000390: 4901 81bd 813d 0dbf ec08 313e d888 683e
000003a0: 1d01 b2be 0543 803e 3d18 873e 966d d2bd
000003b0: 494b 29bf 1538 44bf 37a6 05bf e87e 8f3e
000003c0: 5b30 983d 06d6 c53c e54f 863e 0e0b 2b3d
000003d0: f41c 3a3e e1ae 873e 427d 86be ffd5 90bc
000003e0: f307 403e d06a 993e 5013 3a3c 2345 833d
000003f0: 709b 54bd 1f9f 463e 0aed 96bf 714b 553e

net.3.bias f4 [8]
0.15027551 0.005875105 0.048227895 0.16693738 -0.07105296 0.14411159 -0.19124758 0.008610267
00000000: d3e1 193e f483 c03b 9d8a 453d a2f1 2a3e
00000010: 3784 91bd fd91 133e 68d6 43be 1412 0d3c
